…
        "colab": {
          "base_uri": "https://localhost:8080/",
          "height": 493
        }
      },
      "source": [
        "model.summary()"
      ],
      "execution_count": 0,
      "outputs": [
        {
          "output_type": "stream",
          "text": [
            "Model: \"sequential_1\"\n",
            "_________________________________________________________________\n",
            "Layer (type)                 Output Shape              Param #   \n",
            "=================================================================\n",
            "conv2d_2 (Conv2D)            (None, 62, 62, 16)        448       \n",
            "_________________________________________________________________\n",
            "max_pooling2d_2 (MaxPooling2 (None, 31, 31, 16)        0         \n",
            "_________________________________________________________________\n",
            "dropout_3 (Dropout)          (None, 31, 31, 16)        0         \n",
            "_________________________________________________________________\n",
            "conv2d_3 (Conv2D)            (None, 29, 29, 32)        4640      \n",
            "_________________________________________________________________\n",
            "max_pooling2d_3 (MaxPooling2 (None, 14, 14, 32)        0         \n",
            "_________________________________________________________________\n",
            "dropout_4 (Dropout)          (None, 14, 14, 32)        0         \n",
            "_________________________________________________________________\n",
            "flatten_1 (Flatten)          (None, 6272)              0         \n",
            "_________________________________________________________________\n",
            "dense_2 (Dense)              (None, 64)                401472    \n",
            "_________________________________________________________________\n",
            "dropout_5 (Dropout)          (None, 64)                0         \n",
            "_________________________________________________________________\n",
            "dense_3 (Dense)              (None, 1)                 65        \n",
            "=================================================================\n",
            "Total params: 406,625\n",
            "Trainable params: 406,625\n",
            "Non-trainable params: 0\n",
            "_________________________________________________________________\n"
          ],
          "name": "stdout"
        }
      ]
    },
    {
      "cell_type": "code",
      "metadata": {
…
